model.pth (torch, 378536 bytes, 8 tensors)

conv1.weight f4 [32, 1, 3, 3]
0	0xbe8a6494	-0.2702986
1	0xbdc0081a	-0.09376545
2	0xbcb2c8a4	-0.021824189
3	0x3eb91c27	0.3615429
4	0x3eb44b4f	0.35213706
5	0x3e7d32da	0.2472643
6	0x3e2ac7df	0.16677807
7	0xbe09c345	-0.13453396
8	0xbe72b024	-0.23700005
9	0x3e8b39b5	0.27192464
10	0x3ed6e00b	0.41967806
11	0x3e9ea0b5	0.30981985
12	0xbe339244	-0.17536265
13	0xbe53718c	-0.20648783
14	0xbd7ac64b	-0.061224263
15	0x3d2053f6	0.03914257
16	0xbea51575	-0.32242933
17	0x3e0167a0	0.12637186
18	0xbc7bd7ac	-0.015371244
19	0x3d8c6685	0.068554915
20	0x3e0044af	0.125262
21	0x3e167f5d	0.14697023
22	0x3ec56abf	0.38558003
23	0x3e227552	0.15865067
24	0xbe36c51a	-0.17848626
25	0xbe301f08	-0.17199337
26	0x3c6fbe78	0.014632814
27	0x3eb16f76	0.3465535
28	0x3ebfdfae	0.37475342
29	0x3b026dcc	0.001990187
30	0x3e8cc960	0.27497387
31	0x3defe7df	0.11714148
32	0xbc175739	-0.009237104
33	0x3e893df4	0.2680508
34	0x3ead693a	0.33869344
35	0x3ebcd7e6	0.36883467
36	0xbe301a4c	-0.17197531
37	0x3eb0a3f3	0.34500083
38	0xbe38af10	-0.18035531
39	0x3e988ffa	0.29797345
40	0x3ec03109	0.3753741
41	0x3e6f5df8	0.2337569
42	0x3e761916	0.24033007
43	0xbd3e38f7	-0.046441045
44	0x3e920e80	0.28526688
45	0xbba73b7b	-0.005103526
46	0xbe195168	-0.1497246
47	0xbea98ece	-0.33116764
48	0x3eb70170	0.35743284
49	0xba658ff5	-0.0008757108
50	0xbeb45276	-0.35219163
51	0xbe330fad	-0.17486449
52	0xbeb5c432	-0.35501248
53	0x3e4c6da4	0.199637
54	0xbe1e9bca	-0.15489116
55	0x3e5f6661	0.21816398
56	0x3e9b08f1	0.3028026
57	0xbdb671cb	-0.08908423
58	0x3eaa5e1b	0.33274922
59	0x3d6371c8	0.055528432
60	0x3e4331a3	0.19061904
61	0x3d914e67	0.07095032
62	0x3ed3a121	0.4133387
63	0x3eaa8cc2	0.33310515
64	0x3e851c11	0.25997975
65	0xbdb11143	-0.086458705
66	0x3eb87acd	0.3603119
67	0x3eccec1b	0.40023884
68	0x3e8252ff	0.25453946
69	0x3e25e271	0.16199662
70	0x3e5e467e	0.21706578
71	0x3e896a7e	0.2683906
72	0x3eb529a6	0.35383338
73	0x3eae905b	0.3409451
74	0x3ec938bf	0.39301106
75	0xbe2e1a35	-0.17002185
76	0x3e56069f	0.20900963
77	0x3e8f6cea	0.28012782
78	0x3ec13702	0.3773728
79	0xbe27c979	-0.1638545
80	0x3ce9edde	0.028555807
81	0x3e904185	0.28174987
82	0x3e979b31	0.2961059
83	0x3e998de2	0.2999106
84	0x3d8f9efc	0.07012746
85	0x3ea407a0	0.32037067
86	0x3e0c30d4	0.13690501
87	0x3ed001de	0.40626425
88	0x3eb5ade4	0.3548423
89	0x3ec5e8da	0.38654214
90	0xbd4892a1	-0.04896796
91	0xbe3bc1f3	-0.18335705
92	0x3ce5d6b6	0.028056484
93	0x3dabf426	0.08396177
94	0xbc4db646	-0.012555664
95	0x3dad59d0	0.08464396
96	0x3ecaabd6	0.39584225
97	0x3ed06dba	0.40708715
98	0x3ebf5c2a	0.37375003
99	0x3e8468ae	0.25861114
100	0xbd1c4a2e	-0.03815668
101	0xbe37e344	-0.17957789
102	0x3e5fec24	0.21867424
103	0x3e329ad0	0.17441869
104	0xbd58f504	-0.05296804
105	0x3d3c7c4c	0.046016976
106	0x3e0a6170	0.13513732
107	0x3ea8c99d	0.3296632
108	0x3e42ae64	0.19011837
109	0x3ca8559f	0.02054864
110	0xbdad4029	-0.08459503
111	0x3dba368e	0.09092437
112	0x3ea127ab	0.31475577
113	0xbe348743	-0.17629723
114	0x3ea103ea	0.314483
115	0x3c9b7685	0.018977413
116	0xbeb212fd	-0.34780112
117	0x3e81d2e1	0.253562
118	0xbda255cd	-0.079265215
119	0x3ea4790d	0.32123604
120	0x3e5a2d29	0.2130629
121	0x3dda2276	0.10651104
122	0x3e21f75c	0.15817016
123	0x3b50b465	0.0031845805
124	0x3e98efef	0.29870555
125	0x3e9d6f09	0.30748776
126	0xbea391b7	-0.3194711
127	0xbe154d0f	-0.14580177
128	0xbe7fe61c	-0.24990124
129	0x3e1c2d06	0.1525155
130	0xbe8e5547	-0.27799436
131	0xbed3455f	-0.41263863
132	0x3e87880b	0.2647098
133	0xbd8bdb79	-0.068289705
134	0xbe89b0e2	-0.26892763
135	0x3e7a4546	0.24440488
136	0xbe7a9f76	-0.24474892
137	0xbe5bc096	-0.21460184
138	0x3e2d2a62	0.16910699
139	0x3dd5fb7f	0.1044836
140	0xbe8dd43a	-0.2770098
141	0x3ecc46ed	0.39897862
142	0x3e57c959	0.21072902
143	0x3ec10198	0.37696528
144	0x3edfa01f	0.4367685
145	0x3d484dc9	0.048902307
146	0xbe0d236d	-0.13783045
147	0x3e6a12ea	0.22858778
148	0x3d68dbdf	0.05685031
149	0x3e7eb036	0.24871907
150	0xbe54543f	-0.20735262
151	0xbddf19b8	-0.10893577
152	0x3ed4f99b	0.41596684
153	0xbde1fa52	-0.11034073
154	0xbe6ec266	-0.23316345
155	0xbe91d8c0	-0.2848568
156	0xbe51ea86	-0.2049962
157	0x3e2b708a	0.16742149
158	0xbd6942a9	-0.056948338
159	0x3e850e52	0.25987488
160	0x3eb39e0e	0.35081524
161	0xbe05dc5e	-0.13072345
162	0x3e59d594	0.2127288
163	0xbe42d74d	-0.19027443
164	0xbd688fbc	-0.0567777
165	0x3e932b7e	0.2874412
166	0x3dcbb59f	0.09946751
167	0xbe9f7cbd	-0.31149855
168	0x3e25d4c4	0.16194445
169	0xbd4c0a48	-0.049814492
170	0xbe4b538c	-0.1985609
171	0xbebc6b8a	-0.36800796
172	0xbd2ddd71	-0.04244751
173	0xbe91d7ee	-0.28485054
174	0xbe855c98	-0.26047206
175	0xbe4ebe36	-0.20189747
176	0xbeb69b02	-0.35665137
177	0x3e8f1e16	0.2795264
178	0x3e516e17	0.20452152
179	0x3e1bb191	0.15204455
180	0xbec70ae1	-0.38875487
181	0xbe0a53c4	-0.13508517
182	0xbe560b5c	-0.20902771
183	0xbea74b1e	-0.32674497
184	0xbe60e692	-0.21962956
185	0x3e1cf127	0.15326367
186	0x3e786662	0.24257806
187	0x3e91469a	0.28374177
188	0x3e0b121d	0.13581128
189	0x3e9dc3e7	0.30813524
190	0x3e42cb5f	0.19022892
191	0xbd7c4ad6	-0.061594807
192	0x3e90ad0a	0.28257018
193	0x3ed38747	0.41314146
194	0xbdc72ecc	-0.09725723
195	0xbd1c5dca	-0.03817538
196	0x3e22fe85	0.15917404
197	0x3e8e1ced	0.27756444
198	0x3ea78dfe	0.3272552
199	0x3e561d58	0.20909631
200	0x3ea541c3	0.32276735
201	0x3ed8ed82	0.42368704
202	0xbcd0f8c4	-0.025509246
203	0x3e9b6dc5	0.30357185
204	0xbe0d8841	-0.13821508
205	0xbd608795	-0.0548168
206	0x3ee07a5d	0.43843356
207	0x3de2e784	0.11079314
208	0x3e61ee68	0.22063601
209	0xbe4e547b	-0.20149414
210	0x3eb83577	0.3597829
211	0x3e82aee8	0.25524068
212	0xbc2161e1	-0.009849996
213	0x3e9ca9eb	0.30598387
214	0x3ee3bcbc	0.4447993
215	0xbe03f77f	-0.12887381
216	0x3e98aa4a	0.2981742
217	0x3e93288a	0.28741866
218	0xbda71f46	-0.08160262
219	0x3dfc51cb	0.12320288
220	0x3d697f17	0.057005968
221	0x3ce16589	0.027514236
222	0x3eac82df	0.33693597
223	0x3e92b624	0.28654587
224	0x3d2d76b7	0.042349543
225	0xbc026e78	-0.007960908
226	0x3eac4007	0.336426
227	0x3dac7fe8	0.08422834
228	0x3e5c8ff2	0.21539286
229	0x3ee81fcf	0.45336768
230	0x3e429cc8	0.1900512
231	0xbe6afb9f	-0.22947548
232	0x3e2352ca	0.1594955
233	0x3eadd40e	0.33950847
234	0x3e996c80	0.2996559
235	0x3e84d7c0	0.25945854
236	0xbd0354d3	-0.032063317
237	0xbd53678e	-0.05161243
238	0x3ee0ac8a	0.43881637
239	0xbe5e9dba	-0.21739855
240	0x3ecbd7d5	0.39813104
241	0x3db4165d	0.08793328
242	0xbc89c24b	-0.016816279
243	0x3e058204	0.13037878
244	0x3e2982f3	0.1655386
245	0xbecfe59e	-0.40604872
246	0x3e70645e	0.23475787
247	0xbe8a7ccd	-0.2704834
248	0xbe8a9648	-0.2706778
249	0xbe1244e0	-0.14284086
250	0xbd57877b	-0.05261944
251	0x3cc7ca08	0.024388328
252	0x3e58f141	0.21185781
253	0x3e7cba6c	0.2468049
254	0xbc9fa8fa	-0.019489754
255	0xbe8f2045	-0.27954307

conv1.bias f4 [32]
0	0xbd2af657	-0.041738834
1	0xbe21bcc4	-0.15794665
2	0xbde132b9	-0.10996003
3	0x3e99168e	0.2990002
4	0x3861d0ea	5.3838747e-05
5	0x3d9b8274	0.07593241
6	0x3a3e89e1	0.00072684704
7	0x3e51bd1a	0.20482293
8	0xbd98003e	-0.07421921
9	0x3e185234	0.14875108
10	0xbe1c8c9c	-0.15288013
11	0xbe07d6b4	-0.13265496
12	0x3e5e0200	0.2168045
13	0x3e34a82e	0.1764228
14	0x3ebe59e2	0.3717795
15	0xb8fc61b3	-0.00012034494
16	0xbe16c6fd	-0.14724346
17	0x3e27b12a	0.16376176
18	0xbd642b4b	-0.05570535
19	0x3e87dfe1	0.26537994
20	0x3e6c6c97	0.23088299
21	0xbc6f6225	-0.014610802
22	0x3e8299fa	0.255081
23	0xb90cc6e4	-0.00013425533
24	0xbe57182e	-0.21005318
25	0x39d9e273	0.00041558183
26	0x3e5e5324	0.21711403
27	0x3e9ed2be	0.3102016
28	0x3e8218d4	0.25409567
29	0x3dab060b	0.08350762
30	0x391d2df4	0.00014989806
31	0x3904d2be	0.00012667009

conv2.weight f4 [64, 32, 3, 3]
0	0x3d4e583b	0.050377112
1	0xbd718cd7	-0.058972206
2	0xbdcab17e	-0.09897135
3	0xbd274d0a	-0.040844955
4	0xbd37a84c	-0.044838235
5	0xbd27dfe4	-0.040985003
6	0xbdd5fec5	-0.10448984
7	0x3d3cdf37	0.04611131
8	0xbd89e2de	-0.067327246
9	0xbd372e92	-0.044722147
10	0xbc80e7bf	-0.015735505
11	0x3d347585	0.044057388
12	0xbc8ce159	-0.017197298
13	0x3c306d5f	0.010768264
14	0xbdb06e31	-0.08614767
15	0xbd6a0ad5	-0.057139236
16	0xbd20511d	-0.039139856
17	0xbdf4863c	-0.11939666
18	0xbd13c439	-0.036075804
19	0xbc6b5ce6	-0.01436541
20	0x3c9097f0	0.017650574
21	0xbd1e7ae8	-0.03869143
22	0xbc6800aa	-0.014160315
23	0xbdaa0e47	-0.083035044
24	0xbd1a7be7	-0.03771582
25	0xbdf04ab5	-0.11732999
26	0xbe115130	-0.14191127
27	0x3d7093e8	0.058734804
28	0x3d5339c6	0.05156877
29	0x3d0eba55	0.03484567
30	0x3d687dd7	0.056760635
31	0x3d64602f	0.05575579
32	0xbd94bb9a	-0.07262345
33	0x3d4d75ff	0.050161358
34	0xbd09b6da	-0.033621646
35	0xbd58854d	-0.0528615
36	0xbb93a335	-0.00450554
37	0x3bb2ef63	0.005460666
38	0xbc60334f	-0.013684108
39	0x3daf9229	0.085728
40	0xbcc6f866	-0.024288367
41	0xbde2b208	-0.11069113
42	0x3da0778d	0.078353025
43	0x3d71fcec	0.059079096
44	0xbce8f328	-0.028436258
45	0xbd2d86b0	-0.042364776
46	0x3d3aa393	0.045566153
47	0xbc6fc64e	-0.014634682
48	0x3d11073c	0.03540729
49	0x3d02fef8	0.03198144
50	0xbc2e393c	-0.010633763
51	0x3d3c3ae0	0.045954585
52	0x3d5c1d05	0.053738613
53	0x3c74417f	0.014908194
54	0x3cc92670	0.024554461
55	0x3cc4edb1	0.024039121
56	0x3ce2f77c	0.0277059
57	0x3d2b9c29	0.041896973
58	0xbd7c6e8a	-0.061628856
59	0xbdaf8a51	-0.08571304
60	0x3db6c049	0.08923394
61	0xbcedf220	-0.029046118
62	0xbcf0cc5f	-0.029394327
63	0xbcb78104	-0.022400387
64	0x3d3fbce2	0.046810992
65	0xbd404180	-0.046937466
66	0x3c866f19	0.016410397
67	0x3d257ca1	0.04040206
68	0x3c94a39f	0.018144427
69	0x3da87f68	0.08227426
70	0x3d78122c	0.060564205
71	0x3cadbb19	0.02120738
72	0x3ce3ae53	0.027793085
73	0xbd478344	-0.04870917
74	0x3d2b168e	0.041769557
75	0x3d61c21f	0.05511677
76	0x3c33cfd4	0.010974843
77	0xbd890dfa	-0.06692119
78	0x3d0f3171	0.03495926
79	0xbd4e0737	-0.05029985
80	0xbd6af042	-0.057358034
81	0x3d28d954	0.041222885
82	0xbd2af3ef	-0.04173654
83	0xbd587664	-0.05284728
84	0x3cc79fe5	0.024368236
85	0xbd451b4d	-0.04812174
86	0xbd9a88e1	-0.07545639
87	0x3db3a18d	0.08771048
88	0x3cfb0e6a	0.030646522
89	0xbda7caf4	-0.08193007
90	0xbd21d30f	-0.03950792
91	0xbcd19778	-0.025584921
92	0xbd38b6d8	-0.04509625
93	0x3d857b0e	0.065176114
94	0x3b590e9b	0.0033120278
95	0xbdc4f63c	-0.09617278
96	0x37e20ef9	2.6948272e-05
97	0x3d9837ff	0.074325554
98	0xbd4de756	-0.050269447
99	0xbb38f93d	-0.002822473
100	0x3d0f31b4	0.03495951
101	0xbdae21ea	-0.08502562
102	0xbc69c7a2	-0.014268788
103	0x3c0dfe40	0.008666575
104	0xbc3a2fe2	-0.011363955
105	0x3d2b30e5	0.041794676
106	0x3c2bb342	0.01047975
107	0xbd854448	-0.06507164
108	0x3db0bac4	0.08629373
109	0xbab3d783	-0.0013720844
110	0x3d254c72	0.040356107
111	0x3dc03836	0.093857214
112	0xbcc8573a	-0.024455655
113	0xbd654858	-0.055977196
114	0xb955b080	-0.00020379014
115	0x3da13bdc	0.078727454
116	0xbd506111	-0.05087382
117	0x3c18d9ef	0.009329303
118	0x3d6092a9	0.054827366
119	0xbd1cf110	-0.038315833
120	0x3d610c41	0.054943327
121	0x3d3c7156	0.046006523
122	0xbdb85e24	-0.09002331
123	0x3d861554	0.06547037
124	0xbcf44615	-0.029818574
125	0x39e3f60d	0.00043480136
126	0x3d565ecb	0.052336495
127	0x3dc9e6cc	0.09858474
128	0x3d649cca	0.05581359
129	0xba98e56e	-0.0011665055
130	0x3cde758a	0.027155656
131	0xbc4c7976	-0.01248013
132	0xbc297340	-0.010342419
133	0x3d85de5a	0.06536551
134	0x3d865134	0.06558457
135	0x3d6b231c	0.05740653
136	0xbd778327	-0.06042781
137	0xbdd610b9	-0.10452408
138	0x3d6d4c9a	0.05793438
139	0xbd42f45e	-0.047596328
140	0xbb8b6401	-0.0042538648
141	0x3d0059e6	0.031335734
142	0x3cb98270	0.022645205
143	0x3b3c1022	0.002869614
144	0xbbf58ce4	-0.007493602
145	0xbb285608	-0.0025686044
146	0xbdc24bbf	-0.09487104
147	0x3ceeca5a	0.029149223
148	0x3c291037	0.010318807
149	0xbcfe6406	-0.031053554
150	0xbc1a00b1	-0.009399579
151	0xbd9ece14	-0.0775415
152	0xbdb6e37d	-0.08930109
153	0x3d0a7609	0.033803973
154	0xbcf0b50e	-0.029383209
155	0xbc2361e9	-0.009972074
156	0x3b1eb2c4	0.002421544
157	0xbd00df0f	-0.031462725
158	0xbd5d7b6e	-0.05407279
159	0xbae76f3f	-0.0017657055
160	0xba6e73af	-0.00090962177
161	0x3c6e8265	0.014557456
162	0x3cd826f7	0.026385767
163	0x3dcdb764	0.100447446
164	0xbb35760b	-0.0027688767
165	0x3d83338a	0.06406315
166	0x3deb85d2	0.115001336
167	0x3ab85fee	0.0014066675
168	0xbc301c34	-0.010748912
169	0x3d96194f	0.07329046
170	0xbd08c234	-0.03338833
171	0x3bfbfee8	0.0076902993
172	0x3ce09410	0.027414352
173	0xbd10f8f3	-0.035393666
174	0x3cd9ebe7	0.026601745
175	0x3d8517bf	0.0649867
176	0x3d56bab5	0.05242415
177	0x3d28c9fd	0.041208256
178	0x3cadceea	0.021216828
179	0xbbbe2131	-0.0058022966
180	0xbd812e3e	-0.06307648
181	0xbc95ed5a	-0.018301655
182	0xbd700bab	-0.058604877
183	0x3d059627	0.0326139
184	0x3b580703	0.0032963164
185	0xbd7a2631	-0.06107158
186	0xba3bb44f	-0.0007160352
187	0xbc92e08c	-0.017929338
188	0x3d6c1fff	0.0576477
189	0x3bea5965	0.00715177
190	0xbc304230	-0.010757968
191	0xbd8dbaa0	-0.069203615
192	0x3cc1dd7f	0.023665188
193	0xbd2eceba	-0.04267762
194	0xb953eca0	-0.00020210678
195	0x3d66b8dd	0.056328643
196	0x3d16104b	0.036636632
197	0xbd88a65e	-0.06672357
198	0x3c7c3988	0.015394576
199	0xbd591ea2	-0.05300773
200	0x3d376e2d	0.044782806
201	0x3c926b23	0.017873352
202	0x3bccca7e	0.006249725
203	0xbc49e424	-0.012322459
204	0xbc1dd751	-0.009633855
205	0xbc3f149e	-0.01166263
206	0xbcbdc794	-0.023166455
207	0x3dccf69d	0.10007975
208	0xbd11973c	-0.03554462
209	0xbb6bdc43	-0.003598944
210	0x3d24ac65	0.04020347
211	0x3d88358f	0.066508405
212	0xbdb09ba4	-0.08623436
213	0x3d92ab93	0.071616314
214	0xbb513638	-0.0031923186
215	0xbdaa1d68	-0.0830639
216	0x3d36d772	0.04463906
217	0x3c7ebaa9	0.015547433
218	0x3b1e774c	0.0024179993
219	0x3d363a9e	0.044489495
220	0x3d49d99e	0.0492798
221	0xbd6f7546	-0.05846145
222	0x3d8b1e03	0.06792834
223	0x3b8430a1	0.0040341173
224	0x3c55fa9e	0.01306024
225	0x3c9540c8	0.018219367
226	0xbca45e3d	-0.020064468
227	0x3d14dac2	0.036341436
228	0xbc9b17b1	-0.018932195
229	0x3cdd2213	0.026993787
230	0xbde495e4	-0.11161402
231	0x3d83cca7	0.06435519
232	0xbc63ca8c	-0.013903271
233	0xbd25e954	-0.040505722
234	0x3ab68d8b	0.0013927681
235	0x3c0a4b68	0.00844083
236	0xba393a4f	-0.00070658786
237	0x3d0bd294	0.03413637
238	0x3d43e449	0.04782513
239	0xbd84d54c	-0.06485996
240	0x3d89bbd5	0.06725279
241	0x3cdf079b	0.027225306
242	0xbd56ba11	-0.05242354
243	0x3d59f2e4	0.053210154
244	0x3c35173f	0.011052906
245	0x3d8c50eb	0.068513714
246	0xbbf618d5	-0.0075102844
247	0x3d9dd6bc	0.07706973
248	0x3cc743b9	0.024324285
249	0x3d32f270	0.043688238
250	0x3d5241b1	0.05133218
251	0x3c79b50a	0.015240917
252	0x3d015590	0.03157574
253	0x3d01721a	0.031602956
254	0x3d7cf49d	0.06175672
255	0x3c9241e8	0.017853692

conv2.bias f4 [64]
0	0x3da3c942	0.07997371
1	0xbc2af4da	-0.010434354
2	0x3d04c4f5	0.032414395
3	0xbcb9aabe	-0.022664424
4	0xbc85e998	-0.016346738
5	0x3c217fe3	0.009857151
6	0xbd084b0f	-0.033274706
7	0xbd52ce54	-0.0514663
8	0xbd714dc6	-0.05891206
9	0xbd6fdbd6	-0.05855926
10	0xbd8c3a4c	-0.06847057
11	0xbd276af0	-0.040873468
12	0x3d2285b2	0.039678283
13	0xbba424d0	-0.005009271
14	0x3cc09d73	0.023512578
15	0x3d99b96b	0.07506069
16	0xbd2cf5f6	-0.042226754
17	0x3dba25bc	0.090892285
18	0xbd329829	-0.043602142
19	0xbcbd0b84	-0.02307678
20	0xbcaee1e1	-0.021347942
21	0xbb9ba407	-0.004749778
22	0x3cb4555f	0.022013364
23	0xbcb89682	-0.022532705
24	0x3d3695d0	0.044576466
25	0xbd3a5d39	-0.04549906
26	0x3d84e723	0.06489398
27	0xbce35b1e	-0.027753409
28	0x3d3c74de	0.04600989
29	0x3ca15146	0.019692075
30	0xbd13fe7a	-0.03613136
31	0xbb62f5e1	-0.0034631419
32	0x3be7b7ac	0.007071456
33	0xbcc586b5	-0.024112085
34	0x3d3b7c80	0.04577303
35	0x3c207062	0.009792419
36	0xbd64cf9b	-0.05586205
37	0xbc06d720	-0.008230001
38	0x3d9a39a6	0.07530527
39	0xbcd62b30	-0.02614364
40	0x3c463cc4	0.012099449
41	0x3c3a32a9	0.011364617
42	0x3dd6606a	0.10467608
43	0xbd6c9556	-0.057759605
44	0x3d622ae0	0.05521667
45	0xbcbf6ee0	-0.023368299
46	0xbd4e152a	-0.050313152
47	0xbd1049ed	-0.03522675
48	0x3dafcd91	0.085841306
49	0xbd106ebd	-0.03526186
50	0xbd06831f	-0.03283989
51	0xbc3e5771	-0.011617527
52	0xbd558330	-0.052127063
53	0x3ca486ac	0.020083748
54	0x3cf7e128	0.03025873
55	0xbd349242	-0.044084795
56	0xbca4020a	-0.020020504
57	0xbcf02b6e	-0.029317584
58	0xbd77d50a	-0.060505904
59	0xbafff2e1	-0.001952734
60	0xbd57cee6	-0.052687548
61	0xbcbd6aa6	-0.023122143
62	0xbd795d8a	-0.06088022
63	0xbccbe714	-0.02489046

conv3.weight f4 [128, 64, 3, 3]
0	0x3c4c36a4	0.012464199
1	0xbc8e494e	-0.017368939
2	0xbaf5324c	-0.0018707006
3	0xbbd0253f	-0.0063520963
4	0xbc0ac63f	-0.008470117
5	0xbcc80f35	-0.024421314
6	0xbc6de027	-0.014518774
7	0x3cd05d19	0.025435017
8	0xbb814e5f	-0.00394611
9	0xbd1524a1	-0.036411885
10	0x3c510386	0.012757188
11	0xbc96ea16	-0.018422168
12	0x3c4663b8	0.012108736
13	0x3c76cabc	0.015062984
14	0x3cce65cd	0.025195027
15	0x3c82809d	0.015930468
16	0xbc7efc8b	-0.015563141
17	0x3cf4de41	0.029891135
18	0xbc9af708	-0.018916622
19	0xbd128d5a	-0.035779335
20	0x3b31e406	0.002714397
21	0x3b95aaa2	0.00456746
22	0xbd152036	-0.036407672
23	0xbd1f5930	-0.038903415
24	0xbd19d2ce	-0.037554555
25	0xbc160bd7	-0.009158096
26	0xbba50d0e	-0.0050369566
27	0x3bd62c76	0.006536062
28	0xbd291e8a	-0.04128889
29	0xbd01e26e	-0.03171008
30	0x3cac0a7b	0.021001091
31	0xbc43eca0	-0.011958271
32	0x39da6a00	0.00041659176
33	0xbd12e8ab	-0.03586642
34	0x3cbdf0d6	0.023186129
35	0xbcd3ff63	-0.025878614
36	0x3c7b53bb	0.015339787
37	0x3c7f8efa	0.015598053
38	0xbccf376c	-0.025294982
39	0x3a4b2d7a	0.0007750612
40	0xbc846859	-0.016163038
41	0xbd2b3006	-0.041793846
42	0x3b871519	0.004122388
43	0x3bffe8ae	0.00780972
44	0xbb3e2620	-0.0029014423
45	0x3bbdf57f	0.0057970877
46	0xbc24dfcf	-0.010063126
47	0x3cd1042d	0.025514686
48	0x3c80e461	0.0157339
49	0xbb287545	-0.0025704664
50	0x3cda9c8b	0.026685974
51	0x3c4d62d5	0.01253577
52	0xbbbc0a64	-0.0057385433
53	0xbd267697	-0.04064044
54	0x3aabf84c	0.0013120263
55	0x3d0c9705	0.03432371
56	0x3c5541b7	0.013016156
57	0x3b64ac29	0.0034892655
58	0x3cbeea33	0.023305034
59	0x3c894e19	0.016760873
60	0xbc9de36e	-0.019273486
61	0x3c90acb7	0.017660482
62	0xbca68774	-0.020328261
63	0x3b862f29	0.0040949774
64	0xbd37d0bb	-0.044876795
65	0xbc94f95a	-0.018185306
66	0xbb370349	-0.0027925542
67	0x3ceae1ba	0.028672088
68	0x3c80c597	0.015719218
69	0xbc593ae8	-0.013258673
70	0x3cf45c4e	0.02982917
71	0xbd0c70cd	-0.034287263
72	0xbcf351a2	-0.029702011
73	0x3bbcefa2	0.005765871
74	0xbbddea12	-0.006772288
75	0xbce3629e	-0.027756985
76	0x3c89e4ac	0.016832672
77	0xbd031f69	-0.032012377
78	0xbcce1dcc	-0.025160693
79	0x3cdf8c40	0.027288556
80	0xbd18c8c0	-0.037300825
81	0x3d16d3c3	0.036823045
82	0x3b8ccd2e	0.0042969203
83	0x3d19cc8f	0.037548598
84	0x3c46157b	0.012090082
85	0x3cff0903	0.031132227
86	0xbd1187f4	-0.035530046
87	0xbd2e558b	-0.04256205
88	0xbcdda8bd	-0.027058
89	0xbd3592e0	-0.044329524
90	0xbcfbd679	-0.030741917
91	0x3ba1fd52	0.004943528
92	0xbb7015fd	-0.00366342
93	0x3cf81571	0.030283662
94	0xbd287017	-0.041122522
95	0xbd3148e4	-0.043282405
96	0xbcea88b6	-0.028629642
97	0xbbeced1b	-0.0072304136
98	0xbcca531f	-0.024697838
99	0xbd02b3b4	-0.03190966
100	0x382fa458	4.187631e-05
101	0x3ccf9e4c	0.025344037
102	0xbc571b14	-0.0131290145
103	0x3c403a33	0.011732626
104	0xbd29a576	-0.04141756
105	0x3c804e50	0.015662342
106	0xbb07c34d	-0.0020715774
107	0xbbdd8db9	-0.0067612794
108	0xbc27fae6	-0.01025269
109	0xbc16734b	-0.009182761
110	0xbccea28b	-0.02522399
111	0x3bbce940	0.0057651103
112	0x3c0986bb	0.008393939
113	0x3c619c4b	0.013770173
114	0xbc88c57e	-0.016695734
115	0xbc34e6d6	-0.011041364
116	0x3d184fc4	0.037185445
117	0x3cf19f2a	0.02949484
118	0xbc84ee52	-0.016226921
119	0xbb63650b	-0.0034697677
120	0x3c72b0ce	0.014812661
121	0x3c1d2003	0.009590152
122	0xbcb180ee	-0.021667924
123	0x3cfc74b2	0.030817363
124	0xbcbd5fca	-0.023116965
125	0x3c9c77ed	0.019100154
126	0x3c03b378	0.008038394
127	0x3cc2209f	0.023697196
128	0xbc46791d	-0.012113837
129	0xbd13dbe4	-0.036098376
130	0x3c64dd86	0.013968831
131	0x3b6ce07d	0.0036144548
132	0xbaaadc23	-0.0013035577
133	0x3b5fbfa9	0.0034141338
134	0xbba44f6b	-0.00501435
135	0xbcaee6e4	-0.021350332
136	0xbcb240ec	-0.021759473
137	0xbc29280d	-0.01032449
138	0x3bbeb69c	0.0058201086
139	0xbbe71b07	-0.0070527825
140	0x3c017120	0.007900506
141	0x3cc44eea	0.02396341
142	0xbb8e3211	-0.0043394645
143	0xbd2896e4	-0.041159526
144	0xbd1c1490	-0.038105547
145	0xbd24aa87	-0.04020169
146	0xbc42d274	-0.011890996
147	0x3cd4ffa2	0.026000801
148	0xbd18cb49	-0.037303243
149	0x3b3de48e	0.002897534
150	0x3cba549d	0.022745425
151	0x3ce5b00e	0.028038051
152	0xbcadf7b5	-0.02123628
153	0x3cd89fd2	0.026443396
154	0x3b6f2dc5	0.0036495787
155	0x3cba43f9	0.02273749
156	0x3cc97e7d	0.024596447
157	0x3c28d1e5	0.010303949
158	0x3c2219dc	0.009893861
159	0xbd0ba670	-0.034094274
160	0x3c7802b9	0.015137368
161	0x3cdad442	0.02671254
162	0x3c255c0e	0.010092748
163	0xbaf751e5	-0.0018869011
164	0xbd37068b	-0.044683974
165	0x3ba32591	0.0049788435
166	0xbc745e70	-0.014915094
167	0xbce8437b	-0.02835249
168	0x3d108cb1	0.035290424
169	0x3ca9064c	0.020632885
170	0xbcf54ecb	-0.029944798
171	0x3bcaf601	0.0061938767
172	0xbd215555	-0.03938802
173	0x3c0d7715	0.008634348
174	0xbd20a0f8	-0.03921601
175	0x3ce49646	0.027903687
176	0x3d11c9e0	0.035592914
177	0xbd160135	-0.036622245
178	0x3c1b67b0	0.00948517
179	0xbc0e9127	-0.008701599
180	0xbcef8af2	-0.029241059
181	0xbcd27867	-0.025692178
182	0xbd08649d	-0.033299077
183	0x3d06aa21	0.03287709
184	0x3b838a41	0.004014284
185	0xbd0a4d96	-0.033765398
186	0xbd1a757f	-0.03770971
187	0x39df5986	0.00042600575
188	0x3ad73ca1	0.0016421267
189	0xbbe8ef61	-0.0071086143
190	0xbc55f86a	-0.013059715
191	0x3b34bbdf	0.00275778
192	0xbc443db8	-0.0119776055
193	0xbd03f991	-0.032220427
194	0xbc2484cf	-0.01004143
195	0x3c580d5d	0.01318678
196	0xbd210e2c	-0.039320156
197	0x3c0d89b3	0.008638787
198	0x3cd079c2	0.025448684
199	0x3cc50f82	0.024055246
200	0x3cb5b9c3	0.022183305
201	0x3bd08e29	0.006364603
202	0x3babccaa	0.0052429037
203	0xbd0b335a	-0.03398452
204	0x3c1fd043	0.009754243
205	0xbd0a552e	-0.03377264
206	0xbd35e806	-0.044410728
207	0x3d0312fe	0.032000534
208	0xbd25ce57	-0.040479984
209	0xbc0dc83d	-0.008653698
210	0xbd13f514	-0.036122397
211	0xbd193b9f	-0.037410375
212	0x3cb5fd35	0.022215465
213	0x3ceaf9d0	0.028683573
214	0x3ac1f81b	0.0014798673
215	0xbd01b10e	-0.031662993
216	0x3d0e5a52	0.034754105
217	0xbbfbaa43	-0.007680209
218	0xbccb71f6	-0.024834614
219	0xbd16282f	-0.036659416
220	0x3d16b213	0.03679092
221	0xbd0328ca	-0.03202132
222	0xbd169780	-0.036765575
223	0xbc0ee236	-0.008720925
224	0xbcdc944b	-0.02692618
225	0xbc395490	-0.011311665
226	0xbcf45686	-0.029826414
227	0x3cda9723	0.026683396
228	0xbd16d9d8	-0.036828846
229	0x3c1dab80	0.009623408
230	0x3c9e5adb	0.019330433
231	0x3cdd6836	0.02702723
232	0xbc9e6593	-0.019335544
233	0x3d07d396	0.03316077
234	0xbb034cd1	-0.00200348
235	0xbaaa6761	-0.001300078
236	0x3cdf6709	0.02727081
237	0x3cdb3b77	0.026761753
238	0xba7aba2e	-0.0009564486
239	0x3ba5b078	0.005056437
240	0x3c218ac2	0.009859743
241	0x3cd8e407	0.02647592
242	0x3982f2ad	0.0002497634
243	0xbca90b42	-0.020635251
244	0xbccadb3a	-0.024762738
245	0xbc751dec	-0.014960747
246	0xbcc9f7c3	-0.024654275
247	0xbcc0b6f2	-0.023524735
248	0xbcb993fb	-0.02265357
249	0xbcb1b96c	-0.021694861
250	0xbce22003	-0.027603155
251	0xbd209256	-0.039202057
252	0x3c77b42b	0.015118639
253	0x3b1051ab	0.0022021334
254	0x3c005a0b	0.007833968
255	0xbc26ade0	-0.010173291

conv3.bias f4 [128]
0	0x3c6ff9d5	0.014646967
1	0x3cf9adfa	0.030478466
2	0x3c0dd3b4	0.008656431
3	0xbb269e80	-0.0025424063
4	0xbd184ac2	-0.03718067
5	0xbcabb7f4	-0.02096174
6	0xbc6aea0b	-0.014338027
7	0xbd117ade	-0.035517566
8	0xbd145fb9	-0.0362241
9	0xbb0debbd	-0.0021655404
10	0xbc8b1626	-0.016978335
11	0x3d31cd18	0.043408483
12	0xbb50ae81	-0.0031842294
13	0x3d0b70d1	0.034043137
14	0x3c2cdd8c	0.010550868
15	0x3c9cd599	0.01914482
16	0xbcd485da	-0.025942732
17	0xbd2a94df	-0.04164588
18	0xbcdce13e	-0.026962873
19	0xbc50c336	-0.012741854
20	0x3bccd4c9	0.006250952
21	0xbd1abb58	-0.03777632
22	0xbd157535	-0.03648873
23	0xbd06eead	-0.032942463
24	0xbc1391d0	-0.009006932
25	0xbd1f0322	-0.038821347
26	0xbc93d778	-0.01804708
27	0xbd06b582	-0.032887943
28	0xbc94baa9	-0.018155413
29	0x3d046dc0	0.03233123
30	0xbc6354f5	-0.013875236
31	0xbc2dd698	-0.010610245
32	0x3c734654	0.0148483105
33	0x3aaffd34	0.0013426901
34	0xbcfc53c8	-0.030801669
35	0xbb875127	-0.004129547
36	0xbd188c8c	-0.03724341
37	0x3cbd752c	0.023127161
38	0xbcdb8605	-0.026797304
39	0x3ca3265d	0.019915754
40	0x3ccc4e4d	0.02493968
41	0xbc974347	-0.018464698
42	0x3cb94fe6	0.022621106
43	0x3cac5dea	0.021040875
44	0x3cf5875f	0.029971777
45	0xbd531f91	-0.051543776
46	0xbcbe6dbc	-0.023245685
47	0x3cd59357	0.026071234
48	0xbd4e5fd4	-0.050384358
49	0x3b88ba81	0.0041726236
50	0x3d1e2f51	0.038619343
51	0x3c695783	0.014242056
52	0x3d0ef51a	0.034901716
53	0x3ab8d0b2	0.0014100282
54	0xbc44262b	-0.011971991
55	0xbcffcf05	-0.031226644
56	0x3c78f82e	0.015195889
57	0xbc76a878	-0.0150548145
58	0x3ca90515	0.020632306
59	0xbce8c1a1	-0.028412642
60	0xbcae661f	-0.02128893
61	0x3aa0a609	0.0012256514
62	0xbd33809c	-0.043823823
63	0xbd09ad7c	-0.033612713
64	0x3c9e87e6	0.01935191
65	0xbc13f047	-0.009029455
66	0x3c96e060	0.018417537
67	0xbc9dca09	-0.019261377
68	0xbbb4e5f5	-0.005520577
69	0xbc27361d	-0.010205773
70	0xbd3818d0	-0.044945538
71	0x3c6f190c	0.014593374
72	0x3cfa019f	0.030518351
73	0x3d1bbddb	0.038022857
74	0xbc014d76	-0.007892003
75	0x3c50bf02	0.012740852
76	0x3cbd28ff	0.023090838
77	0xbcf51ba3	-0.029920405
78	0xbb6da1c4	-0.003625975
79	0x3c28105d	0.010257808
80	0x3c5fd872	0.013662444
81	0xbc8f8b36	-0.017522436
82	0xbd335ac3	-0.04378773
83	0x3c3d3728	0.011548795
84	0x3ce094b5	0.027414659
85	0xbd1af0d7	-0.03782734
86	0x3bbab331	0.005697631
87	0x3c9aefd3	0.018913185
88	0x3c6e4ad3	0.014544207
89	0x3a871511	0.0010305961
90	0x3bc70436	0.0060735
91	0x3c230239	0.00994926
92	0x3c08f7b2	0.008359836
93	0x3be90168	0.0071107633
94	0xbd0de0a8	-0.034638077
95	0x3acf0e09	0.001579703
96	0xbb9299df	-0.0044739093
97	0xbd44905b	-0.04798923
98	0x3cf5fa78	0.03002666
99	0xbb93f750	-0.004515566
100	0xbd615692	-0.0550142
101	0x39befe70	0.00036429195
102	0xbc5ac20b	-0.0133519275
103	0x3cbd3a01	0.023098947
104	0xbbcd3e81	-0.0062635546
105	0xbd2d91d6	-0.042375408
106	0x3d05d1ff	0.03267097
107	0xbc952af4	-0.018208958
108	0xbd1e0a2d	-0.038583923
109	0xbc70f933	-0.014707851
110	0xbd1c0a86	-0.038095973
111	0xbd17b1fc	-0.037034974
112	0xbcf61a42	-0.030041818
113	0xbce80f40	-0.028327584
114	0xbc53766d	-0.012906653
115	0x3bab4296	0.0052264435
116	0x3c8afc47	0.016965998
117	0x3c8c6fec	0.017143212
118	0xbd4d85a9	-0.050176296
119	0x3c81e921	0.015858235
120	0xbcb8d6e0	-0.022563398
121	0x3ccbde97	0.024886413
122	0xbcff1992	-0.031140123
123	0xbd1f15c7	-0.038839128
124	0xbcaf235a	-0.021379162
125	0x3cc4eda3	0.024039095
126	0x3c2d1964	0.010565136
127	0x3cb6684e	0.022266533

fc1.weight f4 [10, 128]
0	0xbd402f4b	-0.046920102
1	0x3da38c18	0.07985705
2	0x3d92439b	0.07141801
3	0xbb92baee	-0.00447785
4	0xbd41394f	-0.047173794
5	0xbe09f128	-0.134709
6	0xbd1562d2	-0.036471196
7	0xbbd6ba27	-0.006552953
8	0x3d155435	0.03645726
9	0xbd7077a0	-0.058707833
10	0x3bc05f4a	0.0058707343
11	0xbab809be	-0.0014040989
12	0xbd989761	-0.07450748
13	0x3c14b088	0.009075291
14	0x3da3c04f	0.07995664
15	0xbd6cb5d7	-0.057790603
16	0xbdb48900	-0.08815193
17	0x3c63cb03	0.013903382
18	0xbdf7ace2	-0.12093522
19	0x3dd159af	0.10222184
20	0xbd46914f	-0.04847842
21	0xbd21afdf	-0.039474364
22	0xbca7a24d	-0.020463133
23	0x3da25f12	0.079282895
24	0x3da7ccae	0.081933364
25	0xbda3e980	-0.08003521
26	0x3d124f15	0.03571995
27	0x3ca41395	0.020028869
28	0xbc18ceeb	-0.009326677
29	0xbd921199	-0.07132263
30	0xbc2141e0	-0.009842366
31	0xbde01ba9	-0.10942776
32	0x3dc9041f	0.09815239
33	0x3bf7e673	0.0075653135
34	0xbe23d2c5	-0.15998371
35	0xbda15eec	-0.07879433
36	0x3d7580e4	0.059937373
37	0xbd5662cd	-0.052340318
38	0xbd885ff7	-0.06658929
39	0xbddcf58d	-0.107890226
40	0xbcc7028f	-0.024293212
41	0xbd6bb4e0	-0.057545543
42	0x3da95dc3	0.08269837
43	0x3d5c0e28	0.053724438
44	0xbc9a9a05	-0.01887227
45	0x3dec8b25	0.11549977
46	0xbdd90d15	-0.10598198
47	0x3d4de199	0.050263975
48	0xbe0471c3	-0.12934022
49	0xbc6f0932	-0.014589595
50	0xbcee28bb	-0.029072156
51	0xbe0dee87	-0.13860522
52	0x3db390d7	0.087678604
53	0x3dc78efd	0.0974407
54	0x3d9b564a	0.07584818
55	0xbdd52e40	-0.10409212
56	0xbd113283	-0.035448562
57	0xbddce482	-0.10785772
58	0x3d93094c	0.071795076
59	0xbd30d7b6	-0.043174468
60	0xbc9df38b	-0.01928117
61	0x3d000ef4	0.03126426
62	0x3d40cf6d	0.047072817
63	0x3c303053	0.010753709
64	0xbdb8aa51	-0.0901686
65	0xbda07b56	-0.078360245
66	0xbdd26657	-0.10273426
67	0xbdb77d93	-0.08959498
68	0xbd374df9	-0.044752095
69	0xbda9636e	-0.08270918
70	0xbd85a80b	-0.06526192
71	0x3ca6ff4f	0.020385412
72	0xbd47e728	-0.048804432
73	0x3d7cb09c	0.061691865
74	0xbda39aca	-0.07988508
75	0x3d0800eb	0.033204
76	0xbd8a0027	-0.0673831
77	0x3b85e37a	0.004085955
78	0xbe09393e	-0.13400742
79	0xbde05c04	-0.109550506
80	0xbd4c035f	-0.049807902
81	0xbd71a982	-0.058999546
82	0x3de2eda9	0.11080486
83	0x3dc28689	0.09498317
84	0xbd4bef89	-0.049788985
85	0x3dcd16dd	0.100141264
86	0xbdac65c7	-0.0841785
87	0xbd96f3a4	-0.073706895
88	0x3d33d8b8	0.04390785
89	0x3d430cb7	0.047619548
90	0x3dbeee74	0.09322825
91	0xbd208004	-0.039184585
92	0xbd56ec61	-0.052471522
93	0xbdd86771	-0.10566605
94	0x3d963b38	0.07335514
95	0xbc354bd7	-0.011065445
96	0x3d87b17a	0.06625648
97	0xbc429c70	-0.011878118
98	0xbd9fa3e0	-0.077949286
99	0x3d943252	0.0723616
100	0xbdf4f1ef	-0.11960208
101	0xbd28ea2c	-0.04123895
102	0x3db724a7	0.08942538
103	0xbdee4d89	-0.116358824
104	0xbd2e98db	-0.042626243
105	0x3d4bdac4	0.049769178
106	0x3d16256a	0.036656775
107	0xbd50ffad	-0.05102508
108	0xbd949ea2	-0.07256819
109	0xbdb199fd	-0.08671949
110	0x3db5e4d0	0.08881533
111	0x3db5b788	0.088728964
112	0xbe176288	-0.1478368
113	0x3d173548	0.036916047
114	0x3da2cc0e	0.079490766
115	0x3c570136	0.013122847
116	0x3d87d3c0	0.06632185
117	0x3d053d74	0.03252931
118	0xbd58b463	-0.052906405
119	0xbd92020f	-0.07129299
120	0x3db719a9	0.08940441
121	0xbc68460a	-0.014176855
122	0x3c2ef0e8	0.010677554
123	0xbdc44810	-0.09584057
124	0xbdb80898	-0.08986014
125	0x3d3c4f59	0.04597411
126	0xbe019a6d	-0.12656565
127	0xbd621f07	-0.05520537
128	0xbb976d00	-0.004621148
129	0x3df81d6f	0.12114989
130	0x3d24015c	0.04004036
131	0xbd349759	-0.04408965
132	0xbd840566	-0.06446342
133	0x3d3f1e8a	0.046659984
134	0x3dc9360c	0.09824762
135	0x3d23c18c	0.039979503
136	0x3dc5f907	0.09666639
137	0x3d9004ab	0.0703214
138	0x3dd7a12f	0.1052879
139	0x3dc467c9	0.09590108
140	0x3df83c26	0.121208474
141	0x3d59d55b	0.053181987
142	0xbdaea686	-0.085278556
143	0x3d4c3352	0.04985363
144	0x3dd5c85e	0.10438608
145	0xbddf32f1	-0.10898388
146	0xbe117c37	-0.1420754
147	0xbd21fa2f	-0.039545234
148	0xbdd7e11a	-0.105409816
149	0x3d77ebcd	0.06052761
150	0xbde24c22	-0.110496774
151	0xbe3fb150	-0.18719983
152	0x3d90f224	0.07077435
153	0xbc83e7e1	-0.01610178
154	0xbdf770b4	-0.12082043
155	0xbdd125b1	-0.10212267
156	0xbd770dca	-0.060315885
157	0xbd9fcf5b	-0.07803222
158	0xbcc0dabe	-0.023541804
159	0x3db58e8a	0.08865078
160	0xbdb1542e	-0.08658634
161	0x3cdca92f	0.026936142
162	0xbd87ab75	-0.066245
163	0xbd9756a6	-0.07389574
164	0xbe080177	-0.13281809
165	0x3d970b97	0.073752575
166	0xbd75ef06	-0.060042404
167	0x3d5713a8	0.05250898
168	0x3d56217f	0.052278038
169	0x3c05d69c	0.008168843
170	0x3bc2fe87	0.005950752
171	0xbdcf8c44	-0.101341754
172	0xbda6b304	-0.08139613
173	0xbe0d07ae	-0.13772461
174	0x3d8a79a0	0.067614794
175	0x3d9446bd	0.07240055
176	0x3cabc9b8	0.02097021
177	0x3dd6c98f	0.10487663
178	0x3cd4862a	0.02594288
179	0xbca93d9e	-0.020659264
180	0x3d58fb5e	0.052974097
181	0x3d002102	0.03128148
182	0xbde63637	-0.112408094
183	0x3c0c0e73	0.008548367
184	0x3d46354f	0.048390683
185	0x3dc31b68	0.09526712
186	0x3d9526b3	0.07282772
187	0xbdc996e3	-0.098432325
188	0xbe209fe1	-0.15685989
189	0x3dbcd83c	0.09220931
190	0x3c36d563	0.011159274
191	0xbdcd5c5a	-0.1002738
192	0x3d7dd640	0.061971903
193	0xbd6d06f8	-0.057867974
194	0x3d6ec9a5	0.058297772
195	0xbc282a47	-0.010263986
196	0x3c8352a3	0.016030615
197	0x3d301c88	0.04299596
198	0xbd1a8996	-0.03772887
199	0x3e0315f5	0.12801345
200	0xbde05252	-0.10953201
201	0xbcee72c8	-0.029107466
202	0x3d82ee1f	0.06393074
203	0x3d221e69	0.039579783
204	0xbdc92e6c	-0.098233074
205	0xbcbc0558	-0.022951767
206	0xbdedad2a	-0.11605294
207	0xbd0f4943	-0.034981977
208	0xbcc4144a	-0.023935456
209	0x3dbb67a1	0.09150625
210	0x3c5886ae	0.013215704
211	0xba6e87de	-0.0009099225
212	0x3de6f5c4	0.11277345
213	0xbdb191bd	-0.086703755
214	0x3d1c9899	0.038231466
215	0xbd3c4b77	-0.045970406
216	0x3dcea13c	0.10089347
217	0xbe2010ec	-0.15631455
218	0xbdc3d35e	-0.095617995
219	0xbd416adf	-0.04722106
220	0x3d0464ae	0.032322578
221	0x3df3f4ac	0.11911902
222	0xbe0d3200	-0.13788605
223	0xbda3aa21	-0.07991434
224	0x3dc4d40d	0.09610758
225	0xbde0af08	-0.109708846
226	0xbd6ff2da	-0.05858121
227	0xbe0ababc	-0.13547796
228	0xbdaef781	-0.085433014
229	0xbc48e386	-0.012261277
230	0xbe073921	-0.13205387
231	0x3dd3faa5	0.10350541
232	0x3d84116b	0.06448635
233	0xbe3c1eff	-0.18371199
234	0x3db59726	0.0886672
235	0x3d976712	0.07392706
236	0xbd806a8a	-0.06270321
237	0x3c2af81f	0.010435133
238	0xbd3d9590	-0.046285212
239	0x3b33d49d	0.002743996
240	0x3d0a5660	0.03377378
241	0x3dd02037	0.101623945
242	0xbd50f7b7	-0.05101749
243	0xbe2e2d2d	-0.1700942
244	0x3de6f8e1	0.11277939
245	0xbde08336	-0.109625265
246	0xbd8eb158	-0.069674194
247	0x3b135863	0.0022483103
248	0xba5edb90	-0.00085013453
249	0xbe421a9b	-0.18955462
250	0xbc67b864	-0.014143083
251	0xbe21e694	-0.15810615
252	0xbd5b7e3e	-0.05358719
253	0x3d2c9259	0.042131756
254	0xbc6ee158	-0.014580093
255	0x3d890966	0.06691246

fc1.bias f4 [10]
0	0xbd4de660	-0.05026853
1	0x3d8805c9	0.066417284
2	0x3d1767be	0.03696417
3	0x3d6664bb	0.056248408
4	0x3d8c1f4b	0.06841906
5	0x3ce78e9a	0.02826624
6	0xbd0eddd1	-0.03487951
7	0x3dba9ded	0.09112153
8	0xbd17161e	-0.036886327
9	0x3b67e669	0.0035385138
